battery health and thermal prediction for mission failure prevention/battery_gru_model.pth (torch, 98578 bytes, 12 tensors)

gru.weight_ih_l0 f4 [144, 7]
0	0x3b74047b	0.0037234116
1	0x3c09a24c	0.008400511
2	0xbaf92ac8	-0.0019009942
3	0x3bee2f2c	0.007268807
4	0x3c45c505	0.012070899
5	0x3bbab006	0.005697253
6	0x3b86dbe4	0.0041155685
7	0xb92507dc	-0.00015738554
8	0x3be81f60	0.0070838183
9	0x3bca4604	0.0061728973
10	0x3ca1f230	0.019768804
11	0x3b21d413	0.0024693056
12	0x3b5e12e0	0.0033885762
13	0x3b16772d	0.0022959218
14	0x3c3b2a99	0.01142373
15	0xbbd50355	-0.0065006413
16	0x3bb31e67	0.0054662707
17	0x3cbbef16	0.022941153
18	0x3c6ccab7	0.014452628
19	0x3c4e48f3	0.012590635
20	0x3c4b4bc5	0.012408202
21	0x3c94dcfd	0.018171782
22	0x3ac343e0	0.0014897548
23	0x3c8bd725	0.017070362
24	0x3c8a7d5f	0.016905485
25	0x3c15f370	0.009152278
26	0x3c9b92a4	0.018990822
27	0x3bb46e7a	0.005506334
28	0x3d2422f2	0.04007239
29	0xbc6e1cc3	-0.0145332245
30	0x3bc38cee	0.005967728
31	0x3d1687d6	0.036750637
32	0x3b332539	0.002733542
33	0x3c896785	0.016772995
34	0x3cad9ff8	0.021194443
35	0xbc0b5bd6	-0.008505782
36	0xbaa25646	-0.0012385331
37	0xbb442662	-0.0029930105
38	0x3b64cd47	0.0034912394
39	0x3b42a213	0.0029698655
40	0xbb0db657	-0.0021623576
41	0x395b29c6	0.0002090103
42	0x3bcdc732	0.0062798494
43	0x3b4fad61	0.0031689035
44	0x3b8e3997	0.0043403613
45	0x3c10e20e	0.008842958
46	0x3b4cfd9b	0.003127909
47	0x3b05afea	0.0020399042
48	0x3b529bfe	0.0032136436
49	0x3b37bd1f	0.002803631
50	0x3b2982be	0.0025865282
51	0x3bcefb67	0.0063165906
52	0x3c366355	0.011132081
53	0x3b34cc75	0.0027587686
54	0x3b1e544c	0.0024159132
55	0x3bdde9bf	0.0067722495
56	0x3b0b1646	0.0021222993
57	0xbbc6688d	-0.006054944
58	0x39fc0c7c	0.00048074487
59	0xbba811d8	-0.0051290803
60	0x3a56ad20	0.000818925
61	0xba338e8b	-0.00068495487
62	0xba899532	-0.0010496734
63	0x3bf806d2	0.0075691724
64	0x3bd5d224	0.006525295
65	0x3ba13cd6	0.0049205823
66	0x392063c9	0.00015295962
67	0x3b9f27c1	0.004857034
68	0x3b00dfbe	0.001966461
69	0xbaa12ced	-0.0012296714
70	0xb9edddd4	-0.00045369437
71	0xbc9cb063	-0.019127076
72	0x3d02a0bb	0.031891566
73	0x3ccfbcb2	0.025358532
74	0x3c61fd3c	0.013793286
75	0x3c209357	0.009800754
76	0x3ca8c4f2	0.020601723
77	0x3c479064	0.0121804215
78	0x3bf4ad47	0.0074669453
79	0xbb13fde2	-0.0022581746
80	0x3bd15d03	0.0063892617
81	0x3b121c12	0.0022294563
82	0x38726018	5.778679e-05
83	0x3bcb9e1f	0.006213918
84	0xba74a029	-0.0009331727
85	0x3a122766	0.0005575329
86	0x3b07a541	0.0020697864
87	0xbb04be82	-0.0020255153
88	0x3abb8a33	0.0014308154
89	0x3b2c0d88	0.0026253182
90	0x3b5e7bb8	0.0033948254
91	0x3d1c7a51	0.038202588
92	0x3cb1e96c	0.02171775
93	0x3c749a53	0.014929372
94	0x3c4c14ae	0.012456102
95	0x3c771cd0	0.015082553
96	0x3c3f934b	0.011692832
97	0x3bd58322	0.0065158764
98	0x3c587d25	0.0132134305
99	0x3b1febeb	0.0024402093
100	0x3a39eede	0.0007092784
101	0x3bcc816e	0.006241015
102	0x3b757367	0.0037452818
103	0xbb2a386c	-0.0025973571
104	0x3ba9e93e	0.0051852753
105	0xbc8fa53f	-0.01753485
106	0x3d2bdff0	0.04196161
107	0x3cb95c06	0.022626888
108	0x3cd6e443	0.02623189
109	0x3c83fbb2	0.016111229
110	0x3ba3a5df	0.0049941386
111	0x3c755b1d	0.014975336
112	0x3b6dfc5e	0.0036313753
113	0xbad05edf	-0.0015897414
114	0xbbc26037	-0.00593188
115	0xbc80ef9c	-0.015739255
116	0x3c981041	0.018562438
117	0x3c921f6c	0.017837249
118	0x3c4fb854	0.012678225
119	0xbae46fe8	-0.001742837
120	0xbc7acfd3	-0.015308338
121	0x3d03c7a4	0.032172814
122	0x3d2f966d	0.042868067
123	0xbc85d18d	-0.016335273
124	0xbc3c8c88	-0.011508115
125	0x3cfe12f3	0.031014895
126	0xbafebba8	-0.0019434588
127	0xbb9d1b83	-0.0047945394
128	0x3c0e287c	0.008676644
129	0x39dfae96	0.0004266395
130	0xbc0a3f3a	-0.008437926
131	0xbb8acc53	-0.004235783
132	0xba8f81cc	-0.0010948717
133	0xbbea870e	-0.007157213
134	0xba2a386c	-0.0006493393
135	0x3c1a96cd	0.009435368
136	0x3cfd8820	0.030948699
137	0x3c117339	0.008877569
138	0x3aaacf07	0.001303167
139	0x3bb32413	0.005466947
140	0xba9723ad	-0.0011531018
141	0x3c6da738	0.0145052
142	0x3cc5de18	0.024153754
143	0x3d008389	0.03137544
144	0x3c0f54bc	0.00874823
145	0x3c57a8c7	0.013162798
146	0x3c58e520	0.013238221
147	0xba9cd981	-0.0011966677
148	0x3af8f9ac	0.0018995306
149	0xbc868a04	-0.016423233
150	0x3a8a8f13	0.0010571204
151	0x3c782e36	0.015147736
152	0x3cb6ba0d	0.022305513
153	0x3c655e92	0.013999598
154	0x3ccb4d3f	0.024817107
155	0x3c078959	0.008272492
156	0x3cd59fb0	0.026077121
157	0x3cdc2828	0.026874617
158	0x3c09069f	0.008363395
159	0x3c33ed22	0.01098183
160	0xba89c0d3	-0.0010509737
161	0x3a18580d	0.00058114604
162	0x3b659f16	0.003503745
163	0x3b899851	0.0041990657
164	0x3b96b400	0.0045990944
165	0x3b2b7c0c	0.0026166467
166	0x3b2122b8	0.0024587344
167	0x3b29beb6	0.0025901026
168	0x3ae33ce5	0.0017336874
169	0x3ac3160b	0.0014883889
170	0x3b125274	0.0022326978
171	0x3ab43928	0.0013749944
172	0x3b11bb42	0.0022236858
173	0x3b334108	0.0027351994
174	0x3b35cca9	0.0027740395
175	0x3c4e8093	0.012603897
176	0x3ba5b0c6	0.0050564734
177	0x3ca8f177	0.020622952
178	0x3caadef2	0.020858262
179	0x3b6d028c	0.0036164848
180	0x3baa8cac	0.0052047577
181	0x3bea25e5	0.0071456307
182	0x3c8dcf3f	0.017310737
183	0x3beeca7a	0.0072873207
184	0x3c15b6f1	0.009137855
185	0x3c3cfb44	0.011534516
186	0x3b0da29d	0.0021611818
187	0x3b37f7ac	0.0028071208
188	0x3b629b0c	0.0034577278
189	0xba6aaaa7	-0.0008951821
190	0x3b920c67	0.004457045
191	0x3c64282d	0.013925594
192	0x3c8742ef	0.016511409
193	0x3b85f4a6	0.0040880023
194	0x3ba295e1	0.0049617146
195	0x3bf81386	0.0075706868
196	0x3d6ac0ca	0.057312764
197	0x3d4b86e9	0.049689207
198	0x3bcd1b7a	0.006259379
199	0x3d1f4c35	0.038891036
200	0x3d0fb56c	0.035085127
201	0x3d25a69c	0.040442094
202	0x3cc51b04	0.024060734
203	0x3c01cce2	0.007922383
204	0x3c2c2ea9	0.0105091715
205	0x3b890325	0.004181283
206	0x3c9d81ba	0.019226898
207	0xbb945f46	-0.004527959
208	0x3a08612d	0.00052024686
209	0x3bfb833a	0.0076755555
210	0x3b7261ef	0.0036984643
211	0x3b8e809b	0.004348827
212	0x3b3e2097	0.0029011124
213	0x3b9ac438	0.004723098
214	0x3b993c59	0.0046763835
215	0x3bc1ca07	0.005913976
216	0x3ba7e398	0.005123567
217	0x3c1597d4	0.009130437
218	0x3bad5972	0.0052902037
219	0x3b935f8d	0.0044974745
220	0x3bdc16a8	0.006716568
221	0x3ba3103b	0.0049763
222	0x3b9686e2	0.004593716
223	0x3b9813a3	0.0046410128
224	0xbca3fa86	-0.02001692
225	0xbca8abbe	-0.020589706
226	0x3cdb33ad	0.02675804
227	0x3d1c1477	0.038105454
228	0x3c819137	0.015816314
229	0x3cc77e0e	0.0243521
230	0x3b1bcbc9	0.0023772588
231	0xbad7e096	-0.001647013
232	0x3c0cbab2	0.0085894335
233	0x3c4f80a3	0.012664947
234	0xbb80130e	-0.0039085215
235	0x3b858f3b	0.0040759123
236	0x3b5ba9d5	0.0033517976
237	0x3c63e420	0.01390937
238	0x3b5187ad	0.0031971738
239	0x3c25828d	0.0101019265
240	0x3c847341	0.016168239
241	0x3ca637e7	0.020290328
242	0x3be42dd9	0.0069634733
243	0xba86a17f	-0.0010271518
244	0x3c18f157	0.009334884
245	0xb96aae83	-0.0002238099
246	0x3b317578	0.0027078073
247	0x3c5c7960	0.013456672
248	0x3c2de6dd	0.010614124
249	0x3ca24963	0.019810384
250	0x3c5e2b0f	0.013560071
251	0x3c21fa48	0.009886332
252	0x3d04ea2f	0.032449897
253	0x3c47fbc9	0.012206026
254	0x3c0a8171	0.008453713
255	0x3b58a914	0.0033059763

gru.weight_hh_l0 f4 [144, 48]
0	0xb807e606	-3.2400734e-05
1	0x3989d88b	0.00026292013
2	0xba49d300	-0.0007698983
3	0xb8a25918	-7.741357e-05
4	0xbad0e044	-0.0015935977
5	0xb8bb3399	-8.926466e-05
6	0xbaa9c850	-0.0012953375
7	0x3a21269f	0.00061474176
8	0xbb5cba72	-0.0033680466
9	0x3bde3bff	0.0067820544
10	0x3a69ef38	0.0008923891
11	0xbaeae6e9	-0.00179216
12	0x3a7fc410	0.00097566936
13	0xba727c10	-0.0009250054
14	0xbab887ca	-0.0014078554
15	0xba6ce984	-0.0009037482
16	0x39dbbd76	0.00041912094
17	0xba23ac4c	-0.0006243631
18	0x3b72e8de	0.003706507
19	0x3a923ea6	0.0011157587
20	0xb98dd543	-0.00027052508
21	0xba28ee4b	-0.00064442
22	0x38131d26	3.5074678e-05
23	0x39d4042d	0.00040438902
24	0x3abcc2b6	0.001440129
25	0x38f9ed4f	0.000119174474
26	0xb9d188f6	-0.0003996563
27	0x39d8c871	0.0004134807
28	0x3aa90f73	0.0012898281
29	0x3b3a0f7c	0.0028390577
30	0xba9e9385	-0.0012098408
31	0xb9c157f1	-0.0003687735
32	0xba61ef7c	-0.0008618755
33	0xbb0e3edb	-0.0021704945
34	0xba17eed3	-0.00057957805
35	0xb759d9c8	-1.2984914e-05
36	0xb9b8ccdc	-0.00035247847
37	0xb8d56064	-0.000101745856
38	0x3acba8dc	0.0015537995
39	0xbaba225e	-0.0014200916
40	0xbb0fb92f	-0.0021930446
41	0x39925138	0.00027907803
42	0xba6221ae	-0.00086262345
43	0x39b80d2b	0.00035105026
44	0xba8feee5	-0.001098123
45	0x38152543	3.555907e-05
46	0xb8512fd2	-4.987402e-05
47	0xba12e632	-0.000560376
48	0x3adb125f	0.0016713849
49	0xba506e2e	-0.00079509884
50	0xb99abda1	-0.00029514453
51	0x3a1874b0	0.00058157276
52	0xbaaaadde	-0.0013021787
53	0x3ab90f11	0.001411887
54	0xb9f81d60	-0.00047324132
55	0x3ad7603a	0.0016431876
56	0xba7e5bdf	-0.0009703021
57	0x3b34afb1	0.002757054
58	0xbac805f0	-0.0015260559
59	0xb9634c20	-0.00021676766
60	0xba9e7e09	-0.0012092005
61	0x3a95e495	0.0011435921
62	0x3a86ea38	0.0010293191
63	0x3a587bc0	0.0008258186
64	0xba843e2e	-0.0010089332
65	0xba73360f	-0.000927777
66	0xbb2f5a50	-0.0026756711
67	0xb8dd3671	-0.00010548242
68	0xba057495	-0.00050909194
69	0xb8d77749	-0.000102742175
70	0xb8b071ec	-8.4135536e-05
71	0xba043e34	-0.00050446694
72	0xbad2f5a9	-0.0016094941
73	0x38c8c4f8	9.5734315e-05
74	0xba41fea2	-0.0007400309
75	0xba991106	-0.0011678047
76	0xbb480622	-0.0030521234
77	0x3ac022ef	0.0014658849
78	0x3a95600e	0.0011396424
79	0x3a8e41bb	0.001085333
80	0x3b1f7b6e	0.0024335044
81	0x39a867ea	0.0003212088
82	0x3a889bb7	0.0010422383
83	0xba9107df	-0.0011064968
84	0x39959fb0	0.0002853847
85	0x3a23ad46	0.00062437763
86	0x389bb586	7.424787e-05
87	0x3a36cee2	0.0006973577
88	0xbb967c75	-0.004592473
89	0x3ae8d103	0.0017762486
90	0x3a2e483b	0.00066483364
91	0x3a2f22e1	0.00066809176
92	0xbae997c9	-0.0017821725
93	0xb76c5034	-1.408537e-05
94	0xbaabf272	-0.0013118519
95	0x3a95cf0c	0.0011429503
96	0x3b66fce9	0.003524596
97	0x3a268c60	0.0006353315
98	0x3aac411e	0.0013141965
99	0x3b421a1b	0.002961761
100	0xbb61eccb	-0.0034473415
101	0x3acbbd70	0.0015544128
102	0xbb431309	-0.0029765985
103	0x3b8e6051	0.004344978
104	0xbb8eeb3f	-0.0043615396
105	0x3bfa77f4	0.007643694
106	0xb9fe2d7d	-0.00048480547
107	0xbb86a5b2	-0.004109108
108	0xb9e4da3c	-0.00043650146
109	0x3a2b278f	0.0006529027
110	0xb8cc7417	-9.7491014e-05
111	0x3a1c1a0a	0.0005954808
112	0xbb63f5a6	-0.003478387
113	0xbb28b5be	-0.0025743092
114	0x3bae78ce	0.0053244596
115	0x3a928228	0.0011177706
116	0xbb43eb56	-0.002989491
117	0x3a64ca60	0.0008727666
118	0xbaf66f8b	-0.0018801553
119	0x3a1e3b87	0.0006036092
120	0x3ac1232c	0.0014735213
121	0x398f0e23	0.00027285618
122	0xbb3d2d8a	-0.0028866255
123	0xba14ee8c	-0.0005681298
124	0xbbab6353	-0.005230346
125	0x3b9a2abd	0.004704802
126	0xbb1db113	-0.0024061843
127	0x3b73b3a2	0.0037185927
128	0x3af8c50c	0.0018979623
129	0xbb0deea2	-0.0021657129
130	0x3a66aab8	0.0008799243
131	0xbb176baa	-0.0023104944
132	0xbb23918d	-0.0024958581
133	0x3580a480	9.584619e-07
134	0x3b0a49a1	0.0021101015
135	0xba9884d0	-0.0011636261
136	0xbb86667f	-0.004101574
137	0x3b92f236	0.00448444
138	0xba12e39a	-0.0005603373
139	0x3a9248e3	0.0011160638
140	0xbb76170e	-0.0037550363
141	0xbb08e9f4	-0.00208914
142	0xbb393550	-0.0028260536
143	0x3b5090c9	0.003182458
144	0x3abd1e8c	0.0014428659
145	0xbb14a246	-0.002267973
146	0xbb05c7bf	-0.0020413247
147	0xba78a2ce	-0.0009484709
148	0xbb01150f	-0.001969639
149	0x39cfdea0	0.00039647985
150	0xbabd1ac2	-0.001442753
151	0x3b7ef310	0.00389022
152	0xbb585a77	-0.0033012906
153	0x3b8b67fa	0.0042543383
154	0xbb857e18	-0.0040738694
155	0x3a5c652c	0.000840741
156	0xba67d3db	-0.00088435196
157	0x372b71f0	1.0218922e-05
158	0xb9b88271	-0.000351924
159	0x3b2d86cb	0.0026478048
160	0x3a8e15c4	0.0010840227
161	0xbae93bb1	-0.0017794279
162	0x3b6eb800	0.003642559
163	0x3b417b87	0.002952309
164	0x38c73168	9.498262e-05
165	0xbb6df047	-0.0036306547
166	0x3b2499d6	0.0025116107
167	0xbab14e87	-0.0013527431
168	0xba26be19	-0.0006360724
169	0x393fd8e1	0.00018295973
170	0xba1c0f75	-0.0005953231
171	0xba8e2530	-0.0010844823
172	0xbac3b386	-0.0014930821
173	0x3b992b30	0.004674338
174	0xb998d24a	-0.00029148377
175	0x3b2ea35f	0.002664767
176	0x3b84af06	0.0040491847
177	0xbaf57f8f	-0.0018730032
178	0x3ae8ae13	0.0017752073
179	0xbacc7435	-0.0015598597
180	0x3b3981d8	0.0028306153
181	0x3af4f11f	0.0018687582
182	0x3b45fb6a	0.003020967
183	0x3a0ea78d	0.0005441837
184	0xbb3a1a6a	-0.0028397092
185	0x3b4fb3bd	0.0031692826
186	0xb954c8d1	-0.00020292705
187	0x3b39c8c5	0.0028348428
188	0xbb6161c2	-0.0034390544
189	0x37cec9df	2.4651117e-05
190	0xbb4e5b0b	-0.0031487371
191	0xbb47da3a	-0.0030495063
192	0x3b198c34	0.0023429515
193	0x3699f5f0	4.588386e-06
194	0x3a5e8626	0.00084886176
195	0x3ae3a5b1	0.0017368105
196	0x3ac8f893	0.001533287
197	0x3ab39f4c	0.001370409
198	0xbb555d36	-0.0032556779
199	0x3b591a41	0.003312722
200	0xb983ded4	-0.00025152287
201	0xba520be4	-0.0008012636
202	0xb9c56313	-0.00037648584
203	0xbb7f8eab	-0.003899495
204	0xb9be3aea	-0.00036283518
205	0x38abf95e	8.200364e-05
206	0x393c1536	0.00017936979
207	0xb7553680	-1.2708479e-05
208	0xba9d566c	-0.0012003905
209	0x3a93baa1	0.001127083
210	0x3c4a8d1f	0.012362747
211	0x3aa08819	0.0012247592
212	0xba8d5623	-0.0010783117
213	0x3a29fb92	0.0006484325
214	0x3b211869	0.00245812
215	0x39e62b9e	0.00043901516
216	0x3b15fffb	0.0022888172
217	0xb9ac8465	-0.00032905038
218	0xbab4768e	-0.0013768242
219	0xb8e79449	-0.000110425586
220	0xbb2450eb	-0.0025072645
221	0x3ad1c738	0.0016004806
222	0xba4cc5e5	-0.0007811471
223	0xba18589c	-0.00058115437
224	0x3b3f063b	0.0029148
225	0xb995b73a	-0.0002855601
226	0x3977d432	0.00023634805
227	0xba863088	-0.0010237852
228	0xb9a3a2fb	-0.00031211213
229	0xb98fd5ba	-0.00027434324
230	0x39eb2a7e	0.00044854352
231	0x3a228d6f	0.0006200885
232	0xbbc5bb52	-0.006034293
233	0x3ae77805	0.001765967
234	0x3b067f0a	0.0020522499
235	0x3a3c730c	0.0007188774
236	0x3aecf599	0.0018078565
237	0xba4559a6	-0.0007528312
238	0xbaa0063e	-0.0012208892
239	0x3aa55fc6	0.0012617044
240	0x3948e40c	0.0001915844
241	0xb8f9ec7c	-0.00011917294
242	0x38653e3a	5.4655808e-05
243	0x398be27d	0.00026680893
244	0xb969fdf7	-0.00022315221
245	0x399adb75	0.00029536677
246	0xb84ed89a	-4.9315953e-05
247	0x39e30a3d	0.00043304442
248	0xbb308758	-0.002693614
249	0xb82e676b	-4.158115e-05
250	0xbacef27d	-0.001578882
251	0xba0926d1	-0.00052319193
252	0xb935f2fa	-0.00017352021
253	0x3a59c1d6	0.0008306777
254	0x3a1f49c4	0.00060763606
255	0x39de27e4	0.0004237286

gru.bias_ih_l0 f4 [144]
0	0x3b0b3829	0.002124319
1	0xbb3f1a07	-0.00291598
2	0x3cb5c996	0.02219085
3	0xbae30853	-0.0017321206
4	0x3d5233c8	0.051318914
5	0xbc091b5a	-0.0083683375
6	0x3bf504ab	0.007477363
7	0x3c8b6be9	0.017019229
8	0xbc41efb0	-0.011836931
9	0x3d05d95c	0.032677993
10	0x3c2aa2c9	0.010414788
11	0x3c2a85ee	0.010407908
12	0x3b8dfe45	0.00433329
13	0xb9843b3c	-0.00025221135
14	0x3bf146e8	0.007363189
15	0x3d48a1c1	0.048982386
16	0x3cbdf412	0.02318767
17	0x3c78e6c0	0.015191734
18	0xbd04b5c3	-0.032399904
19	0x3bfdf496	0.007750104
20	0x3b8c544b	0.0042825094
21	0x3d55fbb1	0.052241985
22	0x3c923bff	0.017850874
23	0x3b74cad1	0.0037352333
24	0x3ba6f2ee	0.0050948774
25	0x3cc57e85	0.02410818
26	0x3c977ea1	0.018492999
27	0x3c6246e7	0.01381085
28	0x3d1e1543	0.038594496
29	0xba47b62c	-0.0007618393
30	0x3c79213b	0.015205677
31	0x3c144730	0.009050176
32	0x3d773aae	0.060358696
33	0x3d041754	0.03224881
34	0x3cafa5bd	0.021441335
35	0xbc72289b	-0.014780189
36	0x3c9244dc	0.0178551
37	0x3d4bfdef	0.049802717
38	0x3c462a3a	0.012095029
39	0x3cd10173	0.025513386
40	0x3c4b8282	0.012421252
41	0x3b839544	0.0040155966
42	0x3c4cd373	0.012501585
43	0x3d0ca8ac	0.034340546
44	0x3bafceaa	0.0053652124
45	0x3bd15c4d	0.006389177
46	0x3941389a	0.00018427
47	0x3c891527	0.016733719
48	0xbb6af04e	-0.00358488
49	0xbb8890fe	-0.004167675
50	0xbc0a2843	-0.008432451
51	0xbc465492	-0.012105124
52	0xbbd2fd64	-0.006438898
53	0xbb33ca25	-0.002743372
54	0xbb4c66ca	-0.0031189197
55	0xbbe1fe1f	-0.0068967487
56	0xbb4e534e	-0.003148276
57	0xbafb2395	-0.0019160385
58	0xbc8cd97c	-0.017193548
59	0xbb0e975f	-0.0021757705
60	0xbbd00b1a	-0.0063489797
61	0xbc52223c	-0.012825545
62	0xbbfae08f	-0.007656164
63	0xbc70c8f9	-0.014696353
64	0xbc6c567c	-0.014424916
65	0xbb0b2ba2	-0.0021235724
66	0x39eaf5ee	0.0004481519
67	0xbc291604	-0.01032019
68	0xbc201be1	-0.009772272
69	0xbc3f6d97	-0.011683843
70	0xbc0092ec	-0.007847529
71	0xbb64a1bd	-0.0034886443
72	0xbbb94404	-0.00565386
73	0xbc2261a3	-0.009910974
74	0xb9d3e509	-0.000404157
75	0xbbbbc18f	-0.005729861
76	0xbcce231e	-0.02516323
77	0xbba102ae	-0.0049136495
78	0xbb94372e	-0.0045231795
79	0xbbfb3d22	-0.0076671997
80	0xbc9adf99	-0.018905448
81	0xbc030bef	-0.007998451
82	0xbc54b23b	-0.012981947
83	0xbbc4495b	-0.00599019
84	0xbc8362ad	-0.016038263
85	0xbc33d306	-0.010975605
86	0xbb49184a	-0.0030684643
87	0xbc0a23b6	-0.008431366
88	0xbbb92443	-0.0056500747
89	0xbbc6481e	-0.0060510775
90	0xbc5eefa2	-0.013606938
91	0xbc6392b0	-0.0138899535
92	0xbb3feba3	-0.0029284738
93	0xba7a545c	-0.00095493137
94	0xbb31aab4	-0.0027109804
95	0xbc420dd1	-0.011844114
96	0x3ccaad0e	0.024740722
97	0xbdd1a39f	-0.10236286
98	0xbd9bf325	-0.076147355
99	0x3c8af52c	0.01696261
100	0xbd34fc23	-0.04418577
101	0x3d83b042	0.06430103
102	0xbd650df2	-0.055921502
103	0x3d148871	0.036262933
104	0xbda3d936	-0.08000414
105	0x3d449f72	0.04800362
106	0xbd639a6d	-0.055567194
107	0xbdb0c32c	-0.08630976
108	0xbbadd5b0	-0.0053050146
109	0x3cbffe00	0.023436546
110	0x3ceadee4	0.028670736
111	0x3e151955	0.14560445
112	0xbcd28614	-0.025698699
113	0xbd8c3ce0	-0.068475485
114	0x3dc48f42	0.09597637
115	0x3d83392f	0.06407391
116	0xbd43a434	-0.04776402
117	0xbd0d786e	-0.03453868
118	0x3d61fd34	0.055173114
119	0xbd4f0e4e	-0.05055075
120	0xbb46007c	-0.003021269
121	0x3b8293d8	0.0039849095
122	0xbc474f63	-0.012164923
123	0xbcd21c8d	-0.02564838
124	0x3c11d08c	0.008899819
125	0x3dd5d864	0.10441664
126	0x3ce6b809	0.028163927
127	0x3d521bbe	0.05129599
128	0x3e057a30	0.13034892
129	0xbdf2ae7b	-0.11849686
130	0xbd38fe39	-0.04516432
131	0xbd86ce6f	-0.06582343
132	0x3e137f63	0.14404063
133	0x3e0b37ef	0.13595556
134	0x3dda2f2f	0.10653531
135	0x3d99f98f	0.07518303
136	0xbd9cc630	-0.07654989
137	0x3dafa9a1	0.08577276
138	0xbcc5a6be	-0.02412736
139	0x3d6e3486	0.05815556
140	0xbdaf7b43	-0.08568432
141	0xbc9bd5fc	-0.019022934
142	0xbde59f62	-0.112120405
143	0xbe015fa0	-0.12634134

gru.bias_hh_l0 f4 [144]
0	0xbac65647	-0.0015131914
1	0x3c8f63f1	0.01750371
2	0xbc08d81a	-0.008352304
3	0x3ced2a86	0.02895094
4	0xbd3036a5	-0.043020863
5	0xbb88ff94	-0.004180858
6	0x3bfce9c0	0.007718295
7	0x3bdcbfae	0.006736717
8	0x3c0b7d34	0.0085137375
9	0xbbd7be7b	-0.0065839863
10	0x3c90e5a5	0.017687628
11	0x3a9f4d1e	0.001215372
12	0x3c15b183	0.00913656
13	0x3b4bf5b9	0.0031121804
14	0x3c276210	0.010216251
15	0x3d2f9525	0.042866845
16	0x3ca82353	0.020524656
17	0x3d8581f3	0.065189265
18	0xbcaf7f86	-0.021423113
19	0x3caf83ea	0.021425206
20	0x3c06b05b	0.008220757
21	0x3d2fbb0d	0.042902995
22	0x3cd31a48	0.025769368
23	0x3a6c30e4	0.0009009971
24	0x3bbd4b99	0.005776834
25	0x3c47d075	0.012195696
26	0x3cdf2ae6	0.027242135
27	0x3c630543	0.013856235
28	0x3d154866	0.036445998
29	0x3d36b974	0.044610456
30	0x3c70433f	0.01466447
31	0x3c0c1780	0.008550525
32	0x3cfafa49	0.030636923
33	0x3d311f87	0.043242957
34	0xbb8e7ed1	-0.004348614
35	0x3d4a2bbe	0.049358122
36	0x3cbb1d32	0.02284107
37	0x3ceb8d69	0.028753953
38	0xbbef93d4	-0.0073113237
39	0xbd12cde7	-0.035840895
40	0x3ca585b8	0.020205364
41	0x3b9b2f4b	0.0047358624
42	0x39a40e5e	0.00031291222
43	0x3c0b9adb	0.008520807
44	0x3bea7953	0.0071555763
45	0x3bc1ea3b	0.005917815
46	0x3a22ea03	0.000621468
47	0x3c88f0a8	0.016716316
48	0xbb89394a	-0.0041877376
49	0xbb9eb992	-0.004843899
50	0xbc0af2a7	-0.008480704
51	0xbc4330e0	-0.011913508
52	0xbbdf8ee8	-0.0068224557
53	0xba8e2ff1	-0.0010848028
54	0xbb4f93b9	-0.0031673743
55	0xbbe4b89f	-0.0069800164
56	0xbb98c526	-0.004662174
57	0xbb592a25	-0.0033136692
58	0xbc4a3f5a	-0.012344206
59	0xbb191f29	-0.002336452
60	0xbbdd1029	-0.006746311
61	0xbc5837f5	-0.013196935
62	0xbbe6c927	-0.007043022
63	0xbbba7d33	-0.0056911944
64	0xbc7b0bfc	-0.0153226815
65	0xbc0ce008	-0.008598335
66	0x3927a2a8	0.00015986955
67	0xbc289c04	-0.010291103
68	0xbba57acb	-0.0050500385
69	0xbc3fc54a	-0.011704752
70	0xbc009553	-0.007848102
71	0xbb61c084	-0.0034447024
72	0xbbc16d44	-0.005902918
73	0xbc221ec6	-0.009895032
74	0xba9fda34	-0.0012195767
75	0xbba82ba2	-0.0051321546
76	0xbcc3d37f	-0.02390456
77	0xbb9ac601	-0.004723311
78	0xbb959f35	-0.004566098
79	0xbbcf6877	-0.006329592
80	0xbc9c8a0b	-0.019108793
81	0xbb499071	-0.003075626
82	0xbc517541	-0.012784303
83	0xbbc8cbe8	-0.006127823
84	0xbc808860	-0.015690029
85	0xbc13ff77	-0.0090330755
86	0xbb4c41f5	-0.0031167243
87	0xbbe9b2b3	-0.0071318983
88	0xbbd2e699	-0.006436181
89	0xbbc8a81a	-0.006123555
90	0xbc60af1f	-0.013713627
91	0xbc63967d	-0.01389086
92	0xbb2590a0	-0.0025263205
93	0xb9d15a94	-0.00039931072
94	0xbb277481	-0.002555162
95	0xbc5174a8	-0.012784161
96	0xbcef7990	-0.02923277
97	0x3c7ad45c	0.0153094195
98	0x3d24fae8	0.040278345
99	0xbde731b4	-0.11288777
100	0xbdcc4fde	-0.09976171
101	0xbbe92b79	-0.007115778
102	0xbd413831	-0.04717273
103	0x3d8263f2	0.06366719
104	0x3d8aaf73	0.067717455
105	0x3d51d83b	0.051231604
106	0xbdf66324	-0.12030628
107	0xbd8a3eff	-0.06750297
108	0xbcb9aace	-0.022664454
109	0xbdcc2b96	-0.09969251
110	0xbcae95da	-0.02131169
111	0xbd12dcf3	-0.035855245
112	0x3dfe6afb	0.12422749
113	0x3cf4181e	0.029796656
114	0x3ce48cfe	0.027899262
115	0x3dc61dcf	0.09673654
116	0x3d2e4ff9	0.042556737
117	0xbe22044e	-0.15821955
118	0xbcb7e0e6	-0.022446107
119	0x3d9b9b06	0.07597928
120	0x3d6c9376	0.057757817
121	0x3d46b69a	0.048513986
122	0xbd03d896	-0.032188974
123	0xbd9c0977	-0.07618993
124	0x3d6a897c	0.05726002
125	0x3d20d0f3	0.03926177
126	0x3d7c9fdc	0.06167589
127	0x3d8cc2e7	0.06873112
128	0x3df3e1f7	0.11908334
129	0xbb9be4f7	-0.0047575193
130	0xbbde44e0	-0.006783113
131	0x3e0e9eab	0.13927715
132	0xbcefca26	-0.029271197
133	0xbe044754	-0.12917835
134	0x3d581190	0.052751124
135	0x3ddcacbf	0.10775136
136	0x3c335813	0.0109462915
137	0x3cf61d39	0.030043231
138	0xbcadeb79	-0.021230446
139	0x3d4ecdc5	0.050489206
140	0xbdbebe7e	-0.09313677
141	0x3c50e50a	0.01274992
142	0xbd89d9ed	-0.06731019
143	0xbd8a48af	-0.067521445

gru.weight_ih_l1 f4 [144, 48]
0	0xbaa2c0bc	-0.0012417058
1	0xb8cd2e5b	-9.783796e-05
2	0x397aa910	0.00023904839
3	0xb97b2de0	-0.00023954315
4	0x3a342007	0.00068712275
5	0xb9d6955f	-0.0004092855
6	0x3a38eb31	0.0007054089
7	0xbafc1baf	-0.0019234325
8	0xba0b5ae6	-0.0005315974
9	0x3a3cabd8	0.00071972376
10	0xba8704bf	-0.0010301097
11	0xb8cc5eea	-9.745157e-05
12	0xba1a92a2	-0.0005896484
13	0x3a0276a8	0.00049767876
14	0x39b97c00	0.00035378337
15	0x3a3f90ef	0.00073076686
16	0xba19ee42	-0.000587199
17	0x39c63538	0.00037805154
18	0x39be6a6b	0.00036318912
19	0x397e9b6c	0.00024281227
20	0x3ae4df95	0.0017461652
21	0xba080367	-0.0005188495
22	0x39e852db	0.0004431222
23	0xba60b6fe	-0.000857219
24	0xba42cf48	-0.00074314
25	0xb739da50	-1.1077689e-05
26	0x3a05b15e	0.0005099977
27	0xba990fff	-0.0011677741
28	0xb8066b4c	-3.2048018e-05
29	0xbb036208	-0.0020047445
30	0x3a111e0b	0.0005535788
31	0xba935c47	-0.0011242711
32	0x39176309	0.00014437376
33	0xb949a6d2	-0.00019230999
34	0xb9902614	-0.0002749419
35	0xb9e90e44	-0.00044451852
36	0x3ab7008f	0.0013961958
37	0x3aadaedf	0.0013250968
38	0xbb09d341	-0.0021030458
39	0x3a9673ff	0.0011478661
40	0xb907a365	-0.00012935472
41	0x38369cd4	4.353824e-05
42	0xb92de8c1	-0.00016585273
43	0xba0a2dc8	-0.0005271104
44	0x3904c43e	0.00012661607
45	0x39d814cb	0.00041214222
46	0xba02afd4	-0.0004985307
47	0xba5ca51c	-0.0008416937
48	0x3a859446	0.0010191284
49	0xbb7c346c	-0.0038483394
50	0xbaca9e41	-0.001545854
51	0xbb0e2ea6	-0.0021695285
52	0x39d75418	0.0004107065
53	0x3a6b8751	0.0008984702
54	0xb897bb23	-7.235098e-05
55	0x3b55e6f9	0.003263889
56	0xbb25f8b9	-0.0025325252
57	0x3ac85566	0.001528424
58	0xbb85b435	-0.0040803202
59	0x3a8ed182	0.0010896178
60	0xbafdf591	-0.0019375553
61	0x3acdf796	0.0015714045
62	0x3b1ca05f	0.00238993
63	0x3bbc077b	0.0057381964
64	0x3ade8431	0.0016976652
65	0xbb72842b	-0.0037005048
66	0x3a343cf9	0.0006875541
67	0xb98a3a44	-0.00026364822
68	0xb8f38404	-0.00011611733
69	0xbb2f1358	-0.002671441
70	0x3b6a4d38	0.0035751592
71	0xbaa6dd56	-0.0012730758
72	0xbb54f5f8	-0.0032495242
73	0xba1dec5d	-0.00060242956
74	0x39b11742	0.000337774
75	0xba85980f	-0.0010192412
76	0xbb5c06c2	-0.0033573364
77	0x3b111f73	0.002214399
78	0x3a96458f	0.0011464822
79	0x3b84d45d	0.004053636
80	0x3b8dc2a4	0.0043261815
81	0xba4384fe	-0.0007458477
82	0x398f87a3	0.00027376143
83	0xba823576	-0.0009934145
84	0x3b5eabef	0.0033976992
85	0x3b00f00b	0.0019674327
86	0x3adeda42	0.0017002302
87	0x3b15ffca	0.0022888058
88	0x3b7555f8	0.0037435275
89	0x3b1338aa	0.0022464194
90	0xb91ab605	-0.00014754392
91	0x3b4a4c2f	0.0030868163
92	0xbb3a59b6	-0.002843482
93	0x39e6b5b7	0.00044004407
94	0xbb3374d1	-0.002738286
95	0xbae1b696	-0.0017220553
96	0x3a9198c7	0.0011108153
97	0xb782bd0c	-1.558524e-05
98	0xb931814f	-0.00016928207
99	0x3a232299	0.0006223112
100	0x3997f706	0.0002898501
101	0x3a4419b4	0.00074806367
102	0xba92d7cb	-0.0011203227
103	0x3af00b51	0.001831392
104	0xb97145b2	-0.00023009515
105	0x3b3d3762	0.0028872122
106	0xba975792	-0.0011546484
107	0x37a55323	1.9708246e-05
108	0xba4c01d6	-0.0007782256
109	0x3986da2f	0.0002572103
110	0xb8e7af55	-0.000110475965
111	0x3a137024	0.0005624315
112	0xba9fa8c0	-0.0012181029
113	0xbaa43ad1	-0.0012529736
114	0xb98e3b9b	-0.0002712876
115	0x3a3d63ab	0.00072246295
116	0xbaba8f3a	-0.0014233359
117	0xba562ea1	-0.00081704004
118	0xb925e23e	-0.00015819908
119	0xba08723b	-0.000520501
120	0x390a086c	0.00013163843
121	0x399199f8	0.0002777127
122	0xbacbae85	-0.0015539682
123	0xba11c44a	-0.00055605604
124	0xbafe7f54	-0.0019416609
125	0x3a9c89ca	0.001194292
126	0xbabd42b8	-0.0014439439
127	0x3b0e3e0e	0.0021704468
128	0x3b339520	0.0027402118
129	0x3967787f	0.00022074765
130	0x3a129a81	0.0005592481
131	0x3a3cab95	0.00071971986
132	0xb9bf2c3c	-0.00036463316
133	0x3a80e40c	0.0009833588
134	0x3a99cdf4	0.0011734352
135	0x38f20ff4	0.00011542431
136	0xb9c159bd	-0.0003687869
137	0x3ae41bcd	0.0017403305
138	0x3a03a6f4	0.00050221314
139	0x3aab083f	0.0013048722
140	0xba89c393	-0.0010510556
141	0xba59b580	-0.00083049387
142	0xbabf724d	-0.0014606208
143	0x3a917786	0.0011098243
144	0x3b9e033d	0.0048221634
145	0x3ae770c6	0.001765751
146	0x3b3efb30	0.0029141419
147	0x3c8e4046	0.017364632
148	0xbc15f981	-0.009153725
149	0xbbd3e628	-0.0064666457
150	0x3c06ce73	0.008227932
151	0x3b38e096	0.0028210036
152	0xbc6d6f13	-0.014491814
153	0x3c91cec6	0.017798793
154	0xb96ab6cb	-0.00022384075
155	0x3c2a9d33	0.010413456
156	0xba44d56a	-0.0007508608
157	0x3aae4fcb	0.0013298927
158	0xb980727c	-0.0002449936
159	0xba5d32d1	-0.0008438053
160	0x3b48322d	0.0030547485
161	0xb982df54	-0.00024961925
162	0x3bad6bed	0.005292407
163	0x3bcda404	0.0062756557
164	0xbae76b42	-0.0017655867
165	0x3ba253e8	0.00495385
166	0xbaac9c1b	-0.0013169082
167	0x3b1dbbfe	0.002406835
168	0x3be3ea43	0.0069554164
169	0x3b813f94	0.0039443467
170	0xbb34c245	-0.0027581614
171	0xbad3955f	-0.0016142539
172	0x3b4e5ab0	0.003148716
173	0x3bfa5ad6	0.007640223
174	0xbbdbc3f1	-0.0067067076
175	0xbae7acff	-0.0017675458
176	0x3a8064bb	0.0009795645
177	0x3b07c238	0.0020715129
178	0x3b57139c	0.0032818085
179	0xbb889b32	-0.0041688913
180	0x3a1f3037	0.0006072553
181	0x3b221ceb	0.0024736475
182	0xb7eb0b30	-2.8019393e-05
183	0xbc610dac	-0.01373617
184	0x3a9627c3	0.0011455942
185	0x3bf81c5f	0.0075717415
186	0x3aaf7b53	0.0013388194
187	0xbbb45f22	-0.005504505
188	0xbbbae354	-0.005703369
189	0xbb8a0643	-0.0042121722
190	0xbb049696	-0.0020231358
191	0x3ba6f361	0.005094931
192	0x3b1112ef	0.002213653
193	0xba065f82	-0.0005125926
194	0x3b0b3d8a	0.0021246397
195	0x3b2963f0	0.002584692
196	0xbbfc789c	-0.0077048074
197	0x3b3699b7	0.0027862617
198	0xba570876	-0.000820286
199	0x3b5fe4ab	0.0034163396
200	0xbb561cd0	-0.0032670982
201	0xbb33df32	-0.0027446267
202	0xba73d96d	-0.00093021133
203	0xbb3f340e	-0.0029175314
204	0xbaa92681	-0.0012905152
205	0x392ac6c6	0.00016286512
206	0xbae535b6	-0.0017487321
207	0xbb74a55f	-0.0037330014
208	0xbb0686a0	-0.002052702
209	0xbb55639a	-0.0032560588
210	0xbc54d4d6	-0.012990197
211	0x37d5f996	2.5507801e-05
212	0xbab01458	-0.0013433797
213	0x3b414e3a	0.002949609
214	0xbb1a3294	-0.0023528682
215	0x3b333a25	0.002734789
216	0x3b380512	0.0028079194
217	0x3a801607	0.000977219
218	0xbb8d0e34	-0.0043046717
219	0xb9da9e4d	-0.00041698143
220	0xbb4d59d6	-0.0031334064
221	0x3be1068f	0.006867237
222	0xbb620ed7	-0.0034493709
223	0x3b166561	0.002294861
224	0x3a71eb25	0.00092284597
225	0x39813db5	0.00024650773
226	0x3a2549b7	0.0006305235
227	0xbb006e57	-0.0019597018
228	0xb9355b1f	-0.0001729545
229	0x3971f89e	0.00023076168
230	0x3b1e02c3	0.0024110533
231	0xbb361eb8	-0.0027789306
232	0xbb26549a	-0.0025380016
233	0x3b01d23e	0.0019809152
234	0xba8c2718	-0.0010692803
235	0x399886ef	0.00029092233
236	0xbb3e3c3b	-0.00290276
237	0xba8ea152	-0.0010881817
238	0xbaf00ea6	-0.0018314912
239	0x3ac4d34f	0.0015016588
240	0x3af1326e	0.001840187
241	0x3954628a	0.00020254604
242	0x3ae40c95	0.0017398769
243	0x3aacaa9c	0.0013173404
244	0xbb13113f	-0.00224407
245	0x3b08b44c	0.0020859418
246	0xb97e5d02	-0.00024257976
247	0x3a91dc9d	0.001112837
248	0xbb421f55	-0.0029620726
249	0x3b4ccd97	0.003125047
250	0x3a16fd45	0.0005759786
251	0xbb20120b	-0.0024424817
252	0xb9ae4e61	-0.00033246263
253	0xb81d0c44	-3.744314e-05
254	0xb8a195bc	-7.7049684e-05
255	0xb9827d68	-0.00024888967

gru.weight_hh_l1 f4 [144, 48]
0	0x39c5fde1	0.00037763923
1	0x3ad788a0	0.0016443916
2	0xb9991fa5	-0.0002920601
3	0x39ce9aa8	0.0003940661
4	0x3a744576	0.0009318212
5	0xba566546	-0.0008178543
6	0x383af75a	4.457622e-05
7	0xba8b2b55	-0.0010617772
8	0xb8cf7bd3	-9.893593e-05
9	0xba4dad92	-0.00078459934
10	0xb9de00e5	-0.00042343806
11	0x3a9676ba	0.0011479475
12	0xb9f782b0	-0.0004720888
13	0xb90ffcdc	-0.0001373174
14	0xba281d2f	-0.000641304
15	0x398566a7	0.0002544422
16	0xbae06f4c	-0.0017123013
17	0xbaaa756d	-0.0013004966
18	0xba8f1bff	-0.0010918378
19	0x38a9bb38	8.09342e-05
20	0x3b21d4b1	0.0024693424
21	0x3aa39ed1	0.0012483244
22	0x3a8d9784	0.0010802601
23	0x39878b6b	0.0002585308
24	0xb99baafa	-0.0002969129
25	0x3ac8ab48	0.0015309835
26	0x3a800907	0.0009768315
27	0x398071d4	0.0002449887
28	0xb9570a73	-0.0002050789
29	0xbaf38dbf	-0.0018581672
30	0xba93543a	-0.0011240311
31	0x3ae5e667	0.0017539979
32	0xbb0d60a1	-0.0021572488
33	0xbb11a367	-0.002222264
34	0x3a6d6bd2	0.0009056899
35	0x3aca6cf6	0.001544385
36	0x3a4910ba	0.0007670034
37	0xb9fed702	-0.0004860685
38	0xba9db328	-0.0012031542
39	0xb980a366	-0.00024535804
40	0x37f1ea18	2.8838447e-05
41	0x3a93099f	0.0011218077
42	0x3a4da950	0.0007845359
43	0x3a78d1a7	0.000949169
44	0xba61c6d0	-0.0008612694
45	0x3ab03f27	0.0013446555
46	0x3af3de10	0.0018605608
47	0x3aae86b4	0.0013315291
48	0x3b23d08d	0.0024996132
49	0x3b8c7f1a	0.0042876126
50	0x3a366976	0.0006958464
51	0xbb3de73c	-0.0028976938
52	0x3b814afc	0.0039457064
53	0x3a2ad114	0.00065161404
54	0x3b00798f	0.0019603705
55	0xbad87386	-0.0016513921
56	0x3be7fab3	0.007079446
57	0x3b075c09	0.0020654222
58	0x39b6a620	0.00034837518
59	0x3ba1b1f1	0.0049345423
60	0xbbaa22d3	-0.0051921397
61	0x3ade0f9f	0.0016941911
62	0x39a222fb	0.0003092511
63	0x3ac71283	0.0015188012
64	0xba3d0d35	-0.0007211746
65	0xbbdec66b	-0.0067985556
66	0xbb5da016	-0.0033817342
67	0x3a980bab	0.0011600157
68	0x3afa5b9a	0.0019100786
69	0x3ba4bc08	0.005027298
70	0x3b19b942	0.002345637
71	0xb87c673c	-6.0177626e-05
72	0x3b34e8e3	0.0027604632
73	0x3b476bb7	0.0030429193
74	0x3ba5fe5c	0.0050657224
75	0xb96baadf	-0.00022475001
76	0xba368433	-0.0006962448
77	0xbaa4a331	-0.0012560842
78	0x3a74ca06	0.0009337965
79	0xbac78fa6	-0.0015225306
80	0x3b020051	0.0019836614
81	0x3afc88d5	0.0019266853
82	0x3b299814	0.0025878
83	0x3b0db4f5	0.0021622751
84	0x38afd942	8.385118e-05
85	0xbb43e5be	-0.0029891576
86	0x3b68d806	0.003552915
87	0xbab22300	-0.0013590753
88	0x3b7945cb	0.0038035985
89	0x3b1d7ff3	0.0024032563
90	0x3bc31e58	0.005954545
91	0xbb2c61db	-0.0026303444
92	0xbb4b1672	-0.003098872
93	0x3a9390e3	0.001125839
94	0xbb414a82	-0.0029493873
95	0x3ae2500a	0.0017266285
96	0x3b280964	0.0025640363
97	0x3a3f77d1	0.0007303926
98	0xb9ee0114	-0.000453957
99	0x3a0f572b	0.0005468006
100	0x3aead2e3	0.0017915632
101	0x3aa6fd2b	0.0012740245
102	0xbaba614b	-0.0014219669
103	0x38aa39ae	8.1169754e-05
104	0x3b158090	0.0022812225
105	0x3a90789e	0.0011022275
106	0xba4ed3c7	-0.00078898337
107	0x3aa9cec4	0.0012955298
108	0xbb275fe3	-0.002553933
109	0x3adbedc0	0.0016779229
110	0xbae91004	-0.0017781262
111	0x3ae6b859	0.0017602547
112	0x399eeae8	0.00030311127
113	0xbb43ec59	-0.0029895513
114	0xba037fe0	-0.0005016308
115	0x3aa32bde	0.0012448987
116	0xba7eaa98	-0.00097147515
117	0x3b4a7783	0.0030893988
118	0xb88f444a	-6.831491e-05
119	0x39ab5a12	0.0003268277
120	0x39905f0e	0.00027536642
121	0x3b0a44d5	0.0021098156
122	0x3aacd4eb	0.0013186013
123	0xba4c9d77	-0.00078054465
124	0xbb319720	-0.0027098134
125	0x3a4ae70f	0.0007740119
126	0x3ace50bd	0.0015740615
127	0xb9a79413	-0.00031963046
128	0x3a9a1132	0.0011754392
129	0x3ad67be4	0.0016363827
130	0xb928c035	-0.00016093331
131	0xb983274a	-0.0002501554
132	0x39eb930d	0.00044932254
133	0xbb52b1c7	-0.003214942
134	0x3aeac7a7	0.0017912284
135	0x39ca46ec	0.00038581283
136	0x39aea062	0.0003330736
137	0xb9ab4381	-0.00032665956
138	0x3b677924	0.0035320008
139	0xba880fa9	-0.0010380644
140	0xb9390a53	-0.00017646821
141	0xba83c5b8	-0.0010053432
142	0xb8f6956a	-0.000117580246
143	0xb89052f2	-6.881905e-05
144	0x3c0eaa5a	0.008707607
145	0x3c21310e	0.009838356
146	0xbca387dd	-0.019962246
147	0xbc2ae5e3	-0.010430786
148	0xbb7173c1	-0.0036842676
149	0x3c07669f	0.008264213
150	0xbbbd1334	-0.0057701115
151	0xbb415534	-0.0029500248
152	0xbbc13848	-0.005896602
153	0xbbb31474	-0.0054650847
154	0xbc23289e	-0.009958414
155	0x39567ca8	0.00020455068
156	0xbb1243f9	-0.0022318347
157	0x3ace085e	0.0015719046
158	0xbaa12378	-0.0012293896
159	0x3c38f769	0.011289456
160	0x3991088e	0.0002766293
161	0xbb9c4e75	-0.004770095
162	0x3c36f338	0.011166386
163	0xbc32ce86	-0.010913497
164	0xbb88740b	-0.004164224
165	0x3b041af2	0.0020157662
166	0xbc2f1eeb	-0.010688524
167	0xbd0e761e	-0.034780614
168	0xba7b4e60	-0.0009586569
169	0x3baff7b3	0.005370104
170	0x3c20332e	0.009777827
171	0xbc506dda	-0.012721503
172	0xbc28f136	-0.010311415
173	0x3c064768	0.0081957355
174	0x3be66537	0.0070311087
175	0xba6c47c6	-0.00090133806
176	0xbb111cc0	-0.002214238
177	0x3c705477	0.0146685755
178	0xbc37213c	-0.011177357
179	0x3c4fe037	0.012687734
180	0x3b8741a3	0.0041276976
181	0xbbd66265	-0.0065424913
182	0x3cca0466	0.0246603
183	0x3c3eed7e	0.011653302
184	0xbace155a	-0.0015722916
185	0xbbc1452a	-0.0058981376
186	0x3b9ba79a	0.0047502043
187	0xb94bca32	-0.00019434912
188	0x3c1d58e4	0.009603713
189	0xbb896f07	-0.0041941437
190	0x3c160d57	0.009158454
191	0xbaa955d0	-0.0012919251
192	0x3b730334	0.0037080767
193	0xba40127e	-0.00073269743
194	0xbb3ab110	-0.0028486885
195	0xbb019547	-0.0019772814
196	0xbb18fdbc	-0.0023344597
197	0x3b6e41c6	0.0036355122
198	0xbb867742	-0.004103572
199	0x3a3d5908	0.00072230445
200	0x3b040c4b	0.0020148929
201	0x3a81f1a2	0.0009913931
202	0xbb890bee	-0.0041823303
203	0xbb14581d	-0.0022635527
204	0xbad4d59f	-0.001623798
205	0x3b939052	0.0045032883
206	0xbb59a8e9	-0.003321225
207	0x3c35648f	0.011071338
208	0x3b443c3f	0.0029943136
209	0xbb399b48	-0.0028321315
210	0x3a99b571	0.0011727047
211	0x3bf42415	0.0074505904
212	0xbb316891	-0.0027070383
213	0x3a4782d5	0.0007610743
214	0xbb40302e	-0.0029325592
215	0x3b0b3c93	0.0021245822
216	0xbb53ff29	-0.0032348132
217	0xbb0e0c20	-0.0021674708
218	0xbad68e8e	-0.0016369389
219	0xbb7b04fd	-0.0038302534
220	0xbb583117	-0.0032988244
221	0x3b2e7329	0.0026618934
222	0x3b86fe97	0.004119705
223	0xbbc5b36b	-0.006033351
224	0x3b229732	0.0024809358
225	0x3bbef59f	0.00582762
226	0x382d83a4	4.1369014e-05
227	0xbbcff9d1	-0.006346919
228	0xba36e68d	-0.0006977104
229	0xbb46aad2	-0.003031422
230	0x3c2a5184	0.010395411
231	0x3ab52912	0.0013821444
232	0xba8b3ebe	-0.0010623557
233	0xbbaaf553	-0.005217233
234	0x3b646847	0.0034852193
235	0xbaf378f9	-0.0018575481
236	0xba0d981a	-0.0005401388
237	0xbb17cfa0	-0.0023164526
238	0x3949fba2	0.00019262594
239	0xbb19cd7b	-0.0023468423
240	0x3b4867b5	0.0030579392
241	0xb9d69ca9	-0.00040933982
242	0xbb31d444	-0.0027134577
243	0x3aa5fddf	0.001266416
244	0xbaf3f7d5	-0.0018613288
245	0x3b0a7211	0.0021125118
246	0xbb5e8694	-0.0033954727
247	0x3b151d4b	0.0022753056
248	0x3b69b683	0.0035661764
249	0x3b038f13	0.0020074293
250	0xbb4fee2a	-0.003172765
251	0xb9c85513	-0.00038210358
252	0xbb435eb8	-0.0029811095
253	0x3b3117ea	0.002702231
254	0xbb5c6782	-0.0033631031
255	0x3b35e647	0.0027755664

gru.bias_ih_l1 f4 [144]
0	0x3b0d1f42	0.0021533524
1	0x3c6a7755	0.014310678
2	0x3bc76c5d	0.006085916
3	0xbd0341bc	-0.03204511
4	0x3c83e667	0.016101075
5	0xbbf62143	-0.0075112893
6	0x3d05c376	0.03265711
7	0xb9fa1776	-0.00047701196
8	0x3d7576e5	0.05992784
9	0x3d2b3168	0.041795164
10	0xbb503a6a	-0.0031773099
11	0x3cb99d01	0.022657873
12	0x3d250337	0.04028627
13	0xbcca2781	-0.02467704
14	0x3cac6d88	0.021048322
15	0x3d2840bd	0.041077364
16	0x3cfded28	0.030996874
17	0x3cb7b616	0.022425693
18	0x3d01adaa	0.03165976
19	0x3d0bba9b	0.034113508
20	0x3b5aa58d	0.0033362836
21	0x3c7de513	0.01549651
22	0x3d071ee6	0.03298845
23	0xbd4d44f7	-0.050114598
24	0x3c27b45a	0.01023587
25	0x3d1fc4ae	0.039005928
26	0x3ad2b894	0.0016076737
27	0x3c5b5540	0.013387024
28	0x3c329113	0.010898846
29	0x3bf7f74b	0.0075673214
30	0x3c543f18	0.012954496
31	0x3c1b1d59	0.009467446
32	0x3ce93440	0.028467298
33	0x3c02deba	0.007987672
34	0x3b317aba	0.0027081207
35	0x3bc1bc0f	0.005912311
36	0x3b15613d	0.0022793554
37	0x3c357302	0.011074783
38	0xbce53a22	-0.027981821
39	0xb82f3638	-4.1773746e-05
40	0x3cec9081	0.028877499
41	0x3d05dc2b	0.03268067
42	0x3d265866	0.040611647
43	0x3c07d56d	0.008290631
44	0x3d68fe73	0.056883287
45	0x3c12f1e5	0.008968805
46	0x3c8ba607	0.017046941
47	0x3bfb501d	0.0076694624
48	0x3c0798ca	0.008276174
49	0xbb7f69bb	-0.0038972932
50	0x3c04940d	0.008091939
51	0x3b78d2dc	0.003796748
52	0x3b2a2386	0.0025961115
53	0x3c0e2da9	0.008677878
54	0x3bd1ad4a	0.0063988315
55	0x3889baa0	6.567431e-05
56	0x3b1f1778	0.0024275463
57	0xbb3309eb	-0.0027319144
58	0x3b5dd645	0.0033849638
59	0xbc030d61	-0.007998795
60	0xbadf9bc7	-0.0017059975
61	0x3c11c02d	0.008895916
62	0xbbb1a5ea	-0.00542139
63	0x3cc9fa03	0.024655348
64	0xba18fd08	-0.00058360444
65	0xbb773ab2	-0.0037724194
66	0xba0f982e	-0.00054776936
67	0xbb40bed9	-0.002941063
68	0x3b460577	0.003021566
69	0xbba3706c	-0.004987767
70	0x3c3bf384	0.011471633
71	0x3b5e725c	0.0033942675
72	0xbb5b84dc	-0.0033495938
73	0xbbba5a0c	-0.005687004
74	0xbbb4a4cd	-0.00551281
75	0x3befb82f	0.0073156576
76	0xbb1067fe	-0.002203464
77	0x3b59df8a	0.0033244812
78	0x3a144e5d	0.0005657429
79	0x3b9a8236	0.0047152294
80	0x3b32d706	0.0027288808
81	0x3ba6629a	0.005077672
82	0x3be44029	0.0069656563
83	0x3bb9945b	0.0056634373
84	0xbb44784b	-0.0029978927
85	0x3aac5f8d	0.0013151035
86	0x3bcf6697	0.0063293683
87	0x3bbcfac1	0.005767197
88	0x3c509e39	0.012733036
89	0x3c2b8c28	0.010470428
90	0x3a8184f6	0.0009881544
91	0x3b8aec2d	0.00423958
92	0x3bb1cb3e	0.0054258397
93	0x3b9c7114	0.004774222
94	0x3b863953	0.004096189
95	0x3c031202	0.007999899
96	0x3e09ff82	0.13476375
97	0xbdf6ad1e	-0.12044738
98	0xbd7fa30a	-0.062411346
99	0xbdcf4adc	-0.101217
100	0x3dad33b9	0.08457131
101	0xbcae6952	-0.021290455
102	0xbccdaeaa	-0.0251077
103	0x3d128a07	0.035776164
104	0x3dba52d4	0.090978295
105	0xbd8e6518	-0.06952876
106	0xbdf153bb	-0.117835484
107	0x3cf89959	0.03034656
108	0x3d6bbd61	0.057553653
109	0x3d4f7a1d	0.050653566
110	0xbdbf4eb5	-0.09341184
111	0x3d3f646d	0.046726633
112	0xbcb06cec	-0.021536313
113	0xbd902a97	-0.07039373
114	0x3be17ad2	0.0068810964
115	0x3d23356a	0.03984586
116	0xbd9dcb97	-0.07704847
117	0x3d8c3599	0.068461604
118	0x3d80efd3	0.06295743
119	0x3dde3e65	0.108517446
120	0xbc8b06fe	-0.016971108
121	0xbd67ba81	-0.05657435
122	0x3bfe9e06	0.0077703027
123	0x3cccce55	0.02500073
124	0xbda1aae0	-0.0789392
125	0xbc4fa32b	-0.01267318
126	0x3e010a9f	0.12601708
127	0xbdcb1fa7	-0.099181466
128	0xbd7cba27	-0.061700966
129	0x3e0ecb3d	0.13944717
130	0xbdb12405	-0.08649448
131	0xbc794b50	-0.01521571
132	0x3ae8bf23	0.0017757158
133	0xbb423a5a	-0.002963683
134	0x3e0fb6fd	0.14034648
135	0x39bae8da	0.00035650173
136	0x3d8d3c0f	0.06896221
137	0x3d84a35f	0.06476473
138	0x3df28256	0.11841266
139	0xbd8d3818	-0.06895465
140	0xbc9ce6a8	-0.019152954
141	0xbca00c02	-0.019536976
142	0x3d3b1581	0.045674805
143	0x3b9025c2	0.0043990323

gru.bias_hh_l1 f4 [144]
0	0x3b3a0add	0.0028387823
1	0x3c8bfb97	0.01708774
2	0xbb0957d2	-0.0020956886
3	0x3ce6eda3	0.028189486
4	0x3ce3c238	0.027802572
5	0xbad15152	-0.001596967
6	0x3bcdf29e	0.0062850257
7	0xbb9958ba	-0.0046797665
8	0x3cd9c5ce	0.026583578
9	0x3c94d93a	0.018169988
10	0x3c710f6f	0.014713152
11	0x3d1eda64	0.038782492
12	0x3d472bea	0.048625864
13	0x3d5e3495	0.054249365
14	0x3cf3a2b8	0.029740676
15	0x3d91563e	0.070965275
16	0x3d25c20c	0.04046826
17	0x3c4ade07	0.012382037
18	0x3ce8b3d1	0.028406056
19	0x3ca7d492	0.020487104
20	0x3c4c8bc9	0.012484499
21	0x3cb19f0d	0.021682287
22	0xbd18850b	-0.037236255
23	0xbcaadf26	-0.020858359
24	0x3d092ebc	0.033491835
25	0x3d4d052e	0.050053768
26	0xbb1e4241	-0.0024148377
27	0x3b268478	0.0025408547
28	0x3b5ad99e	0.003339387
29	0x3c5f2475	0.013619532
30	0x3be371a4	0.0069410373
31	0x3be54673	0.0069969236
32	0x3ca6fe29	0.020384865
33	0xbca48ca4	-0.020086594
34	0xbb66b1b9	-0.0035201146
35	0x3bc1e07e	0.005916654
36	0x3c2ba690	0.010476723
37	0x3d41a3c4	0.04727532
38	0x3cb2e8eb	0.02183958
39	0x3c831cd6	0.016004961
40	0x3d36e9af	0.04465645
41	0x3d7cc662	0.06171263
42	0xbc27a6f2	-0.010232674
43	0x3bc3e8a8	0.0059786625
44	0x3d14f0b2	0.036362357
45	0xbc30313e	-0.010753928
46	0x3c2613f5	0.010136594
47	0x399deed4	0.00030123314
48	0x3c0e4abf	0.008684813
49	0xbb10b528	-0.0022080634
50	0x3a88faaf	0.0010450686
51	0x3b1fd80a	0.0024390244
52	0x3bf0e814	0.0073518846
53	0x3b5d9666	0.0033811568
54	0x3cae10cd	0.021248246
55	0x3abe71dc	0.0014529782
56	0x3adb7862	0.0016744251
57	0xbb357a73	-0.0027691394
58	0x3b67a247	0.0035344528
59	0x3c07b5c8	0.008283086
60	0xbacbf778	-0.0015561422
61	0xbb1ed388	-0.002423497
62	0x3c6b4e46	0.014361924
63	0x3a1006b0	0.00054941606
64	0xbb098457	-0.0020983422
65	0xbb249aba	-0.0025116638
66	0x3ac6f6a8	0.001517971
67	0xbaa888a0	-0.00128581
68	0x3bdd1944	0.0067473967
69	0xbb99c013	-0.0046920865
70	0x3c249dd1	0.010047392
71	0x3bac8155	0.005264441
72	0x3894cf26	7.095774e-05
73	0xbbcb260e	-0.006199605
74	0x3b31db61	0.0027138817
75	0x3bed7374	0.007246429
76	0xb9bbc8cd	-0.00035817028
77	0x3bd79025	0.0065784627
78	0x3a36f60d	0.00069794134
79	0x3b96a982	0.0045978436
80	0xb922ca67	-0.00015524925
81	0x3a690840	0.0008889474
82	0x3b574c5d	0.0032851913
83	0x3c636f0f	0.013881459
84	0xbb5eafe9	-0.0033979362
85	0xbbb25a0a	-0.0054428624
86	0x3b098e1a	0.002098924
87	0x3b121164	0.0022288198
88	0x3ba7b7d3	0.005118349
89	0xbb3eb3aa	-0.0029098787
90	0xbb2fc165	-0.0026818153
91	0x3bbd48cc	0.0057765003
92	0x3bc83c52	0.0061107064
93	0xbb5d0c4f	-0.003372926
94	0x3b33deae	0.002744596
95	0x3b4ad121	0.0030947404
96	0xbd9a9477	-0.07547849
97	0x3c98e44d	0.01866355
98	0xbd2e3f6e	-0.04254096
99	0x3d412c21	0.047161225
100	0x3d3b1661	0.04567564
101	0xbc543400	-0.012951851
102	0x3d888d5a	0.06667586
103	0xbc839c10	-0.016065627
104	0x3d89ba86	0.0672503
105	0x3cb1ae10	0.021689445
106	0x3d78c356	0.060733162
107	0x3d1f9d69	0.038968477
108	0xbdb01f17	-0.0859968
109	0xbde27267	-0.11056977
110	0x3be09604	0.0068538208
111	0x3d662a85	0.056192894
112	0x3d9fac4b	0.07796534
113	0xbdbb493f	-0.0914483
114	0x3db9fa9a	0.090810016
115	0xbdbfa0ec	-0.09356865
116	0x3d6f3d51	0.058408085
117	0x3d9ea85f	0.07746958
118	0xbd8970b8	-0.067109525
119	0x3d90fe69	0.07079775
120	0xbcb387b4	-0.021915294
121	0xbc9d1687	-0.019175781
122	0x3cdcd625	0.02695758
123	0x3b3a9523	0.002847024
124	0x3d91e3a8	0.071235
125	0x3d17df92	0.037078448
126	0xbd55b96d	-0.05217879
127	0xbd9fa1f0	-0.07794559
128	0x3d256859	0.040382717
129	0x3b8c3d08	0.0042797364
130	0x3b916d07	0.004438046
131	0x3d685486	0.056721233
132	0xbdb51194	-0.088412434
133	0xbd1c8568	-0.038213164
134	0x3daa38aa	0.08311589
135	0x3d37ba49	0.04485539
136	0xbd7434f1	-0.0596208
137	0x3c68e623	0.014215025
138	0xbd105d63	-0.03524531
139	0xbac9fea2	-0.001541097
140	0x3d38bd4e	0.04510241
141	0xbdad9f46	-0.084776446
142	0xbd1467d1	-0.03623182
143	0xbdad9a9f	-0.08476757
